2018-10-29 21:54:27.807846: I tensorflow/core/platform/cpu_feature_guard.cc:141] Your CPU supports instructions that this TensorFlow binary was not compiled to use: AVX2 FMA
Loading Conv3D
_________________________________________________________________
Layer (type)                 Output Shape              Param #   
=================================================================
conv3d_1 (Conv3D)            (None, 38, 78, 78, 32)    2624      
_________________________________________________________________
max_pooling3d_1 (MaxPooling3 (None, 38, 39, 39, 32)    0         
_________________________________________________________________
conv3d_2 (Conv3D)            (None, 36, 37, 37, 64)    55360     
_________________________________________________________________
max_pooling3d_2 (MaxPooling3 (None, 36, 18, 18, 64)    0         
_________________________________________________________________
conv3d_3 (Conv3D)            (None, 34, 16, 16, 128)   221312    
_________________________________________________________________
conv3d_4 (Conv3D)            (None, 32, 14, 14, 128)   442496    
_________________________________________________________________
max_pooling3d_3 (MaxPooling3 (None, 32, 7, 7, 128)     0         
_________________________________________________________________
conv3d_5 (Conv3D)            (None, 31, 6, 6, 256)     262400    
_________________________________________________________________
conv3d_6 (Conv3D)            (None, 30, 5, 5, 256)     524544    
_________________________________________________________________
max_pooling3d_4 (MaxPooling3 (None, 30, 2, 2, 256)     0         
_________________________________________________________________
flatten_1 (Flatten)          (None, 30720)             0         
_________________________________________________________________
dense_1 (Dense)              (None, 1024)              31458304  
_________________________________________________________________
dropout_1 (Dropout)          (None, 1024)              0         
_________________________________________________________________
dense_2 (Dense)              (None, 1024)              1049600   
_________________________________________________________________
dropout_2 (Dropout)          (None, 1024)              0         
_________________________________________________________________
dense_3 (Dense)              (None, 30)                30750     
=================================================================
Total params: 34,047,390
Trainable params: 34,047,390
Non-trainable params: 0
_________________________________________________________________
None
Epoch 1/1000
Creating test generator with 1084 samples.
Creating train generator with 2695 samples.

 1/82 [..............................] - ETA: 2:36:24 - loss: 3.4206 - acc: 0.0000e+00 - top_k_categorical_accuracy: 0.0938
…
