2018-10-30 11:43:00.062779: I tensorflow/core/platform/cpu_feature_guard.cc:141] Your CPU supports instructions that this TensorFlow binary was not compiled to use: AVX2 FMA
Loading C3D
_________________________________________________________________
Layer (type)                 Output Shape              Param #   
=================================================================
conv1 (Conv3D)               (None, 40, 80, 80, 64)    5248      
_________________________________________________________________
pool1 (MaxPooling3D)         (None, 40, 40, 40, 64)    0         
_________________________________________________________________
conv2 (Conv3D)               (None, 40, 40, 40, 128)   221312    
_________________________________________________________________
pool2 (MaxPooling3D)         (None, 20, 20, 20, 128)   0         
_________________________________________________________________
conv3a (Conv3D)              (None, 20, 20, 20, 256)   884992    
_________________________________________________________________
conv3b (Conv3D)              (None, 20, 20, 20, 256)   1769728   
_________________________________________________________________
pool3 (MaxPooling3D)         (None, 10, 10, 10, 256)   0         
_________________________________________________________________
conv4a (Conv3D)              (None, 10, 10, 10, 512)   3539456   
_________________________________________________________________
conv4b (Conv3D)              (None, 10, 10, 10, 512)   7078400   
_________________________________________________________________
pool4 (MaxPooling3D)         (None, 5, 5, 5, 512)      0         
_________________________________________________________________
conv5a (Conv3D)              (None, 5, 5, 5, 512)      7078400   
_________________________________________________________________
conv5b (Conv3D)              (None, 5, 5, 5, 512)      7078400   
_________________________________________________________________
zero_padding3d_1 (ZeroPaddin (None, 5, 7, 7, 512)      0         
_________________________________________________________________
pool5 (MaxPooling3D)         (None, 2, 3, 3, 512)      0         
_________________________________________________________________
flatten_1 (Flatten)          (None, 9216)              0         
_________________________________________________________________
fc6 (Dense)                  (None, 4096)              37752832  
_________________________________________________________________
dropout_1 (Dropout)          (None, 4096)              0         
_________________________________________________________________
fc7 (Dense)                  (None, 4096)              16781312  
_________________________________________________________________
dropout_2 (Dropout)          (None, 4096)              0         
_________________________________________________________________
dense_1 (Dense)              (None, 30)                122910    
=================================================================
Total params: 82,312,990
Trainable params: 82,312,990
Non-trainable params: 0
_________________________________________________________________
None
Epoch 1/1000
Creating train generator with 2695 samples.
Creating test generator with 1084 samples.

 1/82 [..............................] - ETA: 4:46:19 - loss: 3.4017 - acc: 0.0625 - top_k_categorical_accuracy: 0.2188
…
