2018-10-29 21:45:10.775965: I tensorflow/core/platform/cpu_feature_guard.cc:141] Your CPU supports instructions that this TensorFlow binary was not compiled to use: AVX2 FMA
Loading CNN-LSTM model.
_________________________________________________________________
Layer (type)                 Output Shape              Param #   
=================================================================
time_distributed_1 (TimeDist (None, 40, 40, 40, 32)    4736      
_________________________________________________________________
time_distributed_2 (TimeDist (None, 40, 38, 38, 32)    9248      
_________________________________________________________________
time_distributed_3 (TimeDist (None, 40, 19, 19, 32)    0         
_________________________________________________________________
time_distributed_4 (TimeDist (None, 40, 19, 19, 64)    18496     
_________________________________________________________________
time_distributed_5 (TimeDist (None, 40, 19, 19, 64)    36928     
_________________________________________________________________
time_distributed_6 (TimeDist (None, 40, 9, 9, 64)      0         
_________________________________________________________________
time_distributed_7 (TimeDist (None, 40, 9, 9, 128)     73856     
_________________________________________________________________
time_distributed_8 (TimeDist (None, 40, 9, 9, 128)     147584    
_________________________________________________________________
time_distributed_9 (TimeDist (None, 40, 4, 4, 128)     0         
_________________________________________________________________
time_distributed_10 (TimeDis (None, 40, 4, 4, 256)     295168    
_________________________________________________________________
time_distributed_11 (TimeDis (None, 40, 4, 4, 256)     590080    
_________________________________________________________________
time_distributed_12 (TimeDis (None, 40, 2, 2, 256)     0         
_________________________________________________________________
time_distributed_13 (TimeDis (None, 40, 2, 2, 512)     1180160   
_________________________________________________________________
time_distributed_14 (TimeDis (None, 40, 2, 2, 512)     2359808   
_________________________________________________________________
time_distributed_15 (TimeDis (None, 40, 1, 1, 512)     0         
_________________________________________________________________
time_distributed_16 (TimeDis (None, 40, 512)           0         
_________________________________________________________________
dropout_1 (Dropout)          (None, 40, 512)           0         
_________________________________________________________________
lstm_1 (LSTM)                (None, 256)               787456    
_________________________________________________________________
dense_1 (Dense)              (None, 30)                7710      
=================================================================
Total params: 5,511,230
Trainable params: 5,511,230
Non-trainable params: 0
_________________________________________________________________
None
Epoch 1/1000
Creating test generator with 1084 samples.
Creating train generator with 2695 samples.

 1/82 [..............................] - ETA: 25:23 - loss: 3.4002 - acc: 0.0625 - top_k_categorical_accuracy: 0.2500
…
