2018-10-29 21:43:19.162586: I tensorflow/core/platform/cpu_feature_guard.cc:141] Your CPU supports instructions that this TensorFlow binary was not compiled to use: AVX2 FMA
Loading simple MLP.
_________________________________________________________________
Layer (type)                 Output Shape              Param #   
=================================================================
flatten_1 (Flatten)          (None, 81920)             0         
_________________________________________________________________
dense_1 (Dense)              (None, 512)               41943552  
_________________________________________________________________
dropout_1 (Dropout)          (None, 512)               0         
_________________________________________________________________
dense_2 (Dense)              (None, 512)               262656    
_________________________________________________________________
dropout_2 (Dropout)          (None, 512)               0         
_________________________________________________________________
dense_3 (Dense)              (None, 30)                15390     
=================================================================
Total params: 42,221,598
Trainable params: 42,221,598
Non-trainable params: 0
_________________________________________________________________
None
Epoch 1/1000
Creating train generator with 2695 samples.
Creating test generator with 1084 samples.

 1/82 [..............................] - ETA: 42s - loss: 4.8768 - acc: 0.0000e+00 - top_k_categorical_accuracy: 0.1875
…
